model_gnn.pt (torch, 3057 bytes, 3 tensors)

conv1.bias f4 [32]
0	0x3cf36749	0.029712336
1	0x3eb87895	0.36029497
2	0x3eccee03	0.4002534
3	0x3c31b62d	0.010846657
4	0x3ebca24a	0.36842567
5	0x3eb57132	0.35437924
6	0x3d10a4c6	0.03531339
7	0x3eb76b67	0.3582413
8	0x3eeee29b	0.4665726
9	0x3ebea92a	0.37238437
10	0x3d028b44	0.031871095
11	0x3c8b1c3a	0.016981233
12	0xbbd6135a	-0.0065330686
13	0x3cfa0629	0.030520516
14	0x3cec8471	0.028871747
15	0x3c78e873	0.015192139
16	0x3ea30915	0.31842867
17	0x39d4473b	0.00040488862
18	0x3f0195fa	0.5061947
19	0x3e523f76	0.20532021
20	0xbec63c33	-0.38717803
21	0x3e12a020	0.14318895
22	0x3de1dd5b	0.11028548
23	0x3cf11434	0.029428579
24	0x3c42efd4	0.011898
25	0x3c6a143c	0.014287051
26	0x3f031edc	0.5121896
27	0x3c8f6452	0.017503891
28	0x3e806a79	0.25081232
29	0x3f0008b4	0.5001328
30	0x3c3aec53	0.011408883
31	0x3e9b46b6	0.30327386

conv1.lin.weight f4 [32, 1]
0	0x3f779dcc	0.96725154
1	0xbf65af3a	-0.897205
2	0xbf0b2248	-0.54349184
3	0x3f3cae7a	0.7370373
4	0xbf366390	-0.7124567
5	0xbfff400d	-1.9941422
6	0x3b333b8e	0.002734873
7	0xbf8e3389	-1.1109477
8	0xbf1b5228	-0.60672235
9	0xbf47a55a	-0.7798668
10	0x3e9c1684	0.30485928
11	0x3f34012b	0.7031428
12	0xbc4d8f26	-0.012546336
13	0x3f37e36d	0.718314
14	0x3f6037ff	0.87585443
15	0x3ec61530	0.3868804
16	0xbfae11f7	-1.3599232
17	0xb99bad83	-0.0002969318
18	0xbe6c388b	-0.23068444
19	0xbf9758df	-1.1823996
20	0x400c2c95	2.190221
21	0xbf533e91	-0.82517344
22	0x3f6ceeeb	0.9255206
23	0x3fa22f05	1.2670599
24	0x3f4e346a	0.8054873
25	0x3f6b3a15	0.918855
26	0xbe7dd637	-0.24788748
27	0x3f4aeea2	0.79270375
28	0xbf98ce93	-1.1938041
29	0xbe9b7dcf	-0.30369422
30	0x3f245fe7	0.64208835
31	0xbf897060	-1.0737419

conv2.lin.weight f4 [1, 32]
0	0x3f126437	0.57184166
1	0xbf565da9	-0.83736664
2	0xbf54d298	-0.8313384
3	0x3f627421	0.8845845
4	0xbf6c8ba0	-0.9240055
5	0xbfc9f204	-1.5776982
6	0xb8378ce0	-4.37618e-05
7	0xbf2a5c66	-0.6654724
8	0xbf0b3028	-0.54370356
9	0xbf44220c	-0.7661445
10	0x3e990788	0.29888558
11	0x3f2c33ac	0.67266345
12	0xb70e2554	-8.472551e-06
13	0x3f1aa9ce	0.6041535
14	0x3f1ea81a	0.6197525
15	0x3ee5f5ff	0.44914243
16	0xbf345b9d	-0.7045229
17	0x394f12b3	0.00019748024
18	0xbedc2236	-0.4299485
19	0xbfa8fcae	-1.3202112
20	0xc008fb75	-2.1403477
21	0xbf67cc56	-0.90546167
22	0x3f7be51d	0.98396474
23	0x3fa431c1	1.2827684
24	0x3f401d1e	0.7504443
25	0x3f42cdd1	0.760953
26	0xbedda385	-0.43288818
27	0x3f0900d3	0.5351688
28	0xbf6d6978	-0.9273906
29	0xbef58a59	-0.47957113
30	0x3f6b1074	0.9182198
31	0xbf6fd855	-0.9368947
